Model Summary:

----------------------------------------------------------------
        Layer (type)               Output Shape         Param #
================================================================
            Conv2d-1           [-1, 16, 26, 26]             160
       BatchNorm2d-2           [-1, 16, 26, 26]              32
            Conv2d-3           [-1, 16, 24, 24]           2,320
       BatchNorm2d-4           [-1, 16, 24, 24]              32
            Conv2d-5           [-1, 16, 22, 22]           2,320
       BatchNorm2d-6           [-1, 16, 22, 22]              32
         MaxPool2d-7           [-1, 16, 11, 11]               0
            Conv2d-8            [-1, 8, 11, 11]             136
       BatchNorm2d-9            [-1, 8, 11, 11]              16
           Conv2d-10             [-1, 16, 9, 9]           1,168
      BatchNorm2d-11             [-1, 16, 9, 9]              32
        Dropout2d-12             [-1, 16, 9, 9]               0
           Conv2d-13             [-1, 16, 7, 7]           2,320
      BatchNorm2d-14             [-1, 16, 7, 7]              32
        Dropout2d-15             [-1, 16, 7, 7]               0
           Conv2d-16             [-1, 16, 5, 5]           2,320
      BatchNorm2d-17             [-1, 16, 5, 5]              32
        Dropout2d-18             [-1, 16, 5, 5]               0
           Conv2d-19             [-1, 10, 1, 1]           4,010
================================================================
Total params: 14,962
Trainable params: 14,962
Non-trainable params: 0



Execution details:

  0%|          | 0/469 [00:00<?, ?it/s]/usr/local/lib/python3.6/dist-packages/ipykernel_launcher.py:43: UserWarning: Implicit dimension choice for log_softmax has been deprecated. Change the call to include dim=X as an argument.
loss=0.08122958242893219 batch_id=468: 100%|██████████| 469/469 [00:11<00:00, 39.98it/s]
…
